model/model.pt (torch, 830312 bytes, 8 tensors)

conv1.weight f4 [16, 1, 3, 3]
000000 78 74 ec 3e bb 5c c3 be 3f 4d e4 be 74 48 b4 be
       0.4618261 -0.38156685 -0.44590184 -0.35211527
000010 18 87 27 bd d7 41 64 be 8c 0b ef be 68 1a 55 bd
       -0.04090032 -0.22290741 -0.46688497 -0.052027136
000020 a5 5b dd bd 48 a8 b8 be 90 d8 08 bf ec 37 9f bd
       -0.108084954 -0.36065888 -0.5345545 -0.07774338
000030 06 34 d7 3e 9f fd 89 be 30 da b5 bd 63 ca c2 3e
       0.42031878 -0.2695131 -0.088795066 0.38045034
000040 50 bf af 3e ce b6 85 3d db a4 07 bf 50 ca 62 3c
       0.34325647 0.06529008 -0.52985924 0.01384218
000050 ef 29 fb bc e0 fb 34 bd 81 ae f8 3e d1 9b e3 bd
       -0.030659644 -0.04418552 0.48570636 -0.11113704
000060 2c ef e0 3d b8 68 d4 3e 5d af bc be 90 12 91 3e
       0.109831184 0.41486144 -0.36852542 0.28334475
000070 36 5e c2 bb 5b d7 ab be 96 d1 06 3f 6e 4e 85 be
       -0.005931641 -0.3356274 0.5266355 -0.260364
000080 a9 9a ee be 8b 07 3d 3e cf ef 42 bd 23 70 dc 3d
       -0.4660237 0.18459909 -0.04759198 0.10763576
000090 ec 3b c9 3e 3c 92 a9 3e ef e1 ef bd 5f 3c 01 3f
       0.3930353 0.3311938 -0.11713015 0.50482744
0000a0 68 b5 2f be c0 dd 80 be b3 c9 94 be c3 4b bc be
       -0.17159045 -0.25169182 -0.29060134 -0.36776552
0000b0 e5 94 9e be 59 1e 3e 3e 21 4c d0 bd 4b d3 04 3d
       -0.30972973 0.18566264 -0.101707704 0.032428067
0000c0 c1 66 c6 3d b1 9c a1 bd ee d5 aa 3e a0 b1 43 3e
       0.096875675 -0.07891215 0.3336634 0.19110727
0000d0 ce 43 3f bd e7 c2 69 3d 6d 95 12 be 96 bc ca 3e
       -0.046695523 0.05707064 -0.14314814 0.39597005
0000e0 7c fe 9d 3e cc ec b3 be 41 c5 4d 3d a6 11 72 3e
       0.3085822 -0.351416 0.050236944 0.23639545
0000f0 97 6b b6 be b2 b5 34 be 9f 1a 01 bc 77 e0 95 be
       -0.3562896 -0.17647436 -0.007879882 -0.29272816
000100 67 9d f3 be 0e 11 be 3e 28 26 b4 3e ad c0 2c bf
       -0.47581026 0.37122387 0.3518536 -0.674815
000110 4b 31 05 bf 30 00 63 3e b8 59 f0 3e 11 82 c9 be
       -0.5202834 0.2216804 0.4694345 -0.39357045
000120 e3 66 0a 3d 0a 8d 73 be e0 8b 95 be 35 4b d6 be
       0.033789527 -0.23784271 -0.2920828 -0.41854253
000130 4e 89 ab be cd ce b5 bd 29 16 04 be c3 14 30 be
       -0.33503193 -0.08877335 -0.12899078 -0.1719542
000140 66 f0 af bd 44 6e ab 3e 3e 13 0b 3b 0c 98 d3 be
       -0.08590774 0.33482563 0.0021221186 -0.4132694
000150 56 b9 2a 3e 96 bc b4 be 7d ef b0 3d 78 6d 8d 3e
       0.16672263 -0.3530013 0.08639429 0.2762258
000160 67 51 9b be 1e 4f 26 3c 6d ba 8e 3e c7 25 c6 3e
       -0.30335543 0.010150699 0.27876607 0.38700697
000170 be cc b2 3e fa f8 f3 3b 9c b1 7c be 7f 32 0f 3d
       0.3492183 0.007445452 -0.24677128 0.034960266
000180 40 0c f1 be e2 8f d9 be f4 d5 9a 3d 75 3f 96 3e
       -0.47079659 -0.42492586 0.075603396 0.2934529
000190 b8 cd d9 3e 30 79 c1 3e e1 39 fe bd 7f 0f fe bd
       0.42539763 0.3778777 -0.12413383 -0.124052994
0001a0 c5 0d 4e 3e 2d 16 e6 be 13 42 cc be 58 3e 94 3d
       0.2012244 -0.44938794 -0.3989416 0.072384536
0001b0 ae 19 a7 3e a0 c7 f3 3e 38 69 67 3e d0 a2 37 bd
       0.3263678 0.4761324 0.22598732 -0.044833004
0001c0 20 2b 04 be cf 34 a2 be 0e dd eb be 15 69 ba be
       -0.12907076 -0.31680915 -0.4606709 -0.36408296
0001d0 7f a4 16 3d b7 22 a7 3e 8d 76 0d 3e 31 0e a2 be
       0.03677797 0.32643673 0.13814755 -0.31651452
0001e0 72 ba 04 3e b8 59 55 3d 5a f4 ac be 41 d4 a3 3e
       0.12961748 0.052087516 -0.33780175 0.31997874
0001f0 1d 32 5e be bd 1d 92 bd 82 ce b9 be 65 fa 5d 3e
       -0.21698804 -0.071345784 -0.36290365 0.21677549
000200 46 12 91 3e 2b 38 e7 3d 0c 77 8e 3e 83 2b d0 3d
       0.28334254 0.1129001 0.278252 0.10164549
000210 b1 0b 93 be 95 0c 84 3e f9 97 e8 3d 6e 62 2b 3e
       -0.28719857 0.2579085 0.113571115 0.16736767
000220 63 90 b7 3d 61 3a c7 3d 76 b2 d0 3e 34 d1 01 bc
       0.089630865 0.09727932 0.40761155 -0.007923413
000230 32 c1 32 be 94 bf 4e be 07 09 66 3e eb 0f 67 be
       -0.1745651 -0.20190269 0.22464381 -0.22564666

conv1.bias f4 [16]
000000 71 95 94 bd 89 69 bd 3d dd 56 a1 3d 0e 2a 31 be
       -0.07255066 0.09248645 0.07877896 -0.17301199
000010 78 52 82 3e 90 a8 59 be 55 67 c3 3c e5 76 b3 3e
       0.25453544 -0.21255708 0.023852983 0.35051647
000020 fb 77 93 3e 81 6e ca 3d b4 b8 5c bd 73 aa 49 be
       0.28802475 0.09884358 -0.053887084 -0.19693927
000030 06 8d e8 3d 2b 78 9a be 63 62 a7 be ee ab dc bc
       0.11355023 -0.30169806 -0.3269225 -0.026937451

conv2.weight f4 [32, 16, 3, 3]
000000 2e 7c b5 3d 7c 5b c7 bd 89 f4 c5 bc 18 89 af bd
       0.08861576 -0.09734246 -0.024164455 -0.085710704
000010 fa f4 fd bb e9 ef af bd f3 62 81 bd 7b 38 00 be
       -0.0077501507 -0.08590681 -0.06317701 -0.12521546
000020 e5 38 c2 bd 97 9e 82 3e 90 d8 83 3e 51 5d 38 bd
       -0.09483508 0.2551162 0.25751162 -0.04501087
000030 0b 01 63 bd dd a2 52 3e 8b 8c 94 3e 08 96 cc bd
       -0.055420917 0.2056994 0.29013476 -0.09989554
000040 3f b4 b7 3c c1 5d 9f 3e da 85 92 3d 45 85 8d 3d
       0.022424815 0.31126216 0.071544364 0.06910185
000050 87 6e 80 be 76 65 21 3e 97 b1 c6 3d 31 63 14 bd
       -0.25084326 0.1576136 0.09701841 -0.03622741
000060 42 67 4f 3d 78 17 a0 3c 1f 51 34 3c 38 f7 dd bd
       0.050635584 0.01954244 0.011005669 -0.10838169
000070 36 44 1c be cc fd 28 be 5d b0 46 be 42 7a 7d 3d
       -0.15260395 -0.16503066 -0.19403215 0.061884172
000080 13 76 54 3e ff 02 fc 3d fe f5 32 3d 7c 58 39 bc
       0.20748167 0.12305259 0.043691628 -0.0113126
000090 5b ea 1d be c0 2f 4c be 73 f8 d9 3a 77 de e0 bd
       -0.15421431 -0.1994009 0.001662983 -0.10979932
0000a0 4d b6 43 be 03 d2 09 be 0e b3 10 be 63 53 8f bd
       -0.19112511 -0.1345902 -0.14130804 -0.06998327
0000b0 53 78 3f be 36 78 cc bd c7 3c 4e be c3 12 29 be
       -0.18698244 -0.09983866 -0.20140372 -0.16511063
0000c0 7e da 2a 3e 8c a3 b9 bc 17 6c 3c bd 3d 3f 0c 3d
       0.1668491 -0.022660993 -0.04600152 0.034239996
0000d0 bb 45 26 3e c9 e7 7f 3d c1 3a bd be 81 7c 3f 3e
       0.16237538 0.062476907 -0.36958888 0.18699838
0000e0 bf 3f 8f 3e 2e ec 52 bd 04 80 cc bd 6f 7b 89 be
       0.27978322 -0.05149477 -0.099853545 -0.26851985
0000f0 99 8b 94 bc 32 5c 18 3e 44 83 d7 3d 31 61 05 3e
       -0.018132972 0.1487892 0.10523084 0.13025357
000100 f2 7b 88 3e 73 3a e5 3d de c6 de bd 78 3a d3 bc
       0.26657063 0.11192789 -0.10877775 -0.025784716
000110 e5 3a 87 3e 45 df 0b 3d f1 0f 5b bc 92 ca ce 3d
       0.2641212 0.034148473 -0.0133705 0.10097231
000120 ba 0f 79 3d 39 70 66 bc df 17 be bd 3c 6b 10 be
       0.060806014 -0.014064842 -0.09281897 -0.14103407
000130 a7 f6 87 3b 12 71 ba 3d 9d 0c e3 bc ae ef 3e be
       0.0041492763 0.09103598 -0.027715975 -0.18646118
000140 66 5d 9c bd 23 48 08 be ea 1e 21 be c0 63 b4 bd
       -0.07635002 -0.13308768 -0.15734449 -0.08808088
000150 b5 98 5b bd 56 14 79 bb d2 54 20 3d c4 56 c8 3d
       -0.05361243 -0.0038006506 0.03914339 0.09782174
000160 68 1b ee bc 54 fb 7c bd e8 44 82 be be 9d 09 bc
       -0.029065803 -0.061763123 -0.25443196 -0.008399425
000170 5a fc ca 3d 79 18 1a be 7f e0 37 be b4 fa bc be
       0.099114135 -0.15048398 -0.17956732 -0.3691002
000180 cb 06 98 3c d6 69 96 3d ef a3 90 bd 7c ee 9b be
       0.018557927 0.07344405 -0.07062518 -0.30455387
000190 9f 07 42 3d 81 ea 27 3e 98 18 9b bd c0 a1 a3 bc
       0.04737055 0.1639805 -0.0757305 -0.01997459
0001a0 e5 87 ac be c1 91 82 bc a1 f0 c9 3d d1 b8 76 3d
       -0.3369743 -0.015938642 0.098603494 0.06023485
0001b0 3e f1 03 be 5c be 83 bd 12 cc 3b 3e 30 dc 75 be
       -0.12884995 -0.064327925 0.18339565 -0.24009776
0001c0 19 7a 05 be 1f 96 61 be c5 0f 41 be 93 0a 31 bd
       -0.13034858 -0.22029923 -0.18853672 -0.043222975
0001d0 67 4b 9c bd 88 6d 85 be 5f b7 55 be a4 e3 ea bd
       -0.07631569 -0.26060128 -0.20870732 -0.114692
0001e0 27 80 98 bd 9d e5 06 3e c8 23 04 bd 0a af 3e 3e
       -0.07446318 0.13173528 -0.032260686 0.1862146
0001f0 0e a8 9b 3c 17 c1 d6 bd e5 57 51 be 34 5e 95 bd
       0.019001033 -0.10486048 -0.20443685 -0.072933584
000200 89 c1 b7 bc 9b 27 a6 3d 22 73 c5 bc a1 93 26 be
       -0.022431152 0.08113023 -0.024102751 -0.16267253
000210 1c 07 56 3c f1 14 99 3d 93 fb 21 3d ca 0d 6c be
       0.013063218 0.074746974 0.03954656 -0.23052135
000220 44 ae 31 be 99 d9 91 bb 00 42 9c b6 31 94 85 bd
       -0.17351633 -0.0044509885 -4.6568457e-06 -0.06522406
000230 28 8a 1f be f7 60 08 3e a9 52 dc 3d 89 cd 80 bc
       -0.15580046 0.13318239 0.10757954 -0.015723007
000240 10 3c b8 bd 75 84 fe bc 97 41 b2 bd 3d b7 db bd
       -0.08995831 -0.03106902 -0.087039165 -0.10728309
000250 32 e0 bd bd d5 c9 7c bc 7f d0 40 3d 74 37 52 bd
       -0.092712775 -0.01542898 0.047073837 -0.051322415
000260 9c 32 34 bd 4a 3b 60 3e 75 58 3a 3e 7c 28 0a 3e
       -0.043993577 0.21897617 0.18197806 0.13492006
000270 88 06 0a be 08 d8 1c be 99 d5 65 be c2 72 12 be
       -0.13479054 -0.15316784 -0.22444762 -0.14301589
000280 dc 26 c1 bd 61 1a b6 3c 52 4c 05 bc ab 25 a3 3d
       -0.0943124 0.022229375 -0.008135872 0.07966169
000290 32 ae fe 3d 2f da dc bd a9 df cd 3d 37 77 ce bd
       0.12435569 -0.10783803 0.100524254 -0.10081332
0002a0 ec 40 3f be 83 4c dc 3d 6e 94 b5 bc 4f 11 f8 3d
       -0.1867711 0.10756781 -0.022165503 0.12112676
0002b0 fd 9d 95 bd 8d 95 83 be b3 bd 11 be 74 3b 25 be
       -0.073055245 -0.25700036 -0.14232521 -0.16135961
0002c0 9e e6 a5 bd aa 09 08 bd 00 b5 e7 3c 40 f1 bb bc
       -0.08100627 -0.03321234 0.02828455 -0.022942185
0002d0 db 4a a0 bd de 32 0b bd 6c c6 45 bd c4 b1 a1 bc
       -0.078267775 -0.033984058 -0.048284933 -0.019738086
0002e0 51 69 3e 3d 95 c9 0f 3e bf b0 95 bd 74 25 26 bd
       0.046487156 0.14041741 -0.07309102 -0.04056306
0002f0 18 38 32 3d be f5 f4 3d 71 a6 92 3d d1 2d 21 bd
       0.043510526 0.11960934 0.071606524 -0.039350335
000300 3c 50 f9 3d bb 69 a4 bd 92 e5 b0 bd e5 14 5a be
       0.121735066 -0.08027979 -0.08637537 -0.21297033
000310 de 59 99 bd 0a 22 87 bd eb 9a 03 be bc e0 5e 3c
       -0.07487844 -0.06598289 -0.12852065 0.013603386
000320 15 e8 3a bd a2 ab 7d 3d bf c9 53 3c 2b 9f 5b 3c
       -0.045631487 0.06193126 0.012926518 0.013404648
000330 a1 83 5c bc bc b6 8e bd c2 3d 74 bd dd 84 5a 3c
       -0.013459117 -0.069684476 -0.05962921 0.013337341
000340 21 96 a4 bc 7d 67 e2 bd 03 90 3a be 9a 25 94 bd
       -0.020091118 -0.11054895 -0.18218999 -0.072337344
000350 4a ad e2 bd 0b 3d 89 bd df 93 d5 bd b4 e7 8c be
       -0.110682085 -0.06701096 -0.10428595 -0.27520525
000360 fb f7 31 be 28 47 f9 bc b6 cc de bd 14 d4 42 bd
       -0.17379753 -0.030429438 -0.10878889 -0.047565535
000370 53 07 38 bd 0b 3b 11 bc 81 9a 8b ba 7d 5f 4f bd
       -0.04492886 -0.008864175 -0.0010650904 -0.050628174
000380 20 27 8e bc bf b4 5a bc 90 76 eb bd 34 2e 1a be
       -0.01735264 -0.013348757 -0.114972234 -0.15056688
000390 f3 37 ed bd bf 2b 4a 3d ca a2 f0 bc 40 83 bc 3d
       -0.11582937 0.049358126 -0.029374499 0.092047215
0003a0 e8 48 2a bd 07 a1 96 bc 4c c3 68 bd 1b 5a 18 bd
       -0.041573435 -0.01838733 -0.056826875 -0.037195306
0003b0 ce ef 3d bd 0b e4 2d 3e 5f ef 2e 3c 16 7b 0f 3e
       -0.046371274 0.16981523 0.010677188 0.14011797
0003c0 61 b8 06 bb 3c bc 51 3d 35 a7 1c bd 7a 93 38 bd
       -0.0020556676 0.051204905 -0.0382454 -0.04506252
0003d0 9f 75 dc bd 1b e2 04 3d c5 66 a2 3d cd 6f b6 3d
       -0.10764622 0.032442193 0.07929758 0.08908043
0003e0 68 89 02 3e 0c 70 0a 3c 1d a6 85 bc da f8 03 be
       0.12747729 0.008449566 -0.01631456 -0.12887898
0003f0 0b e3 ae 3c 39 07 a7 bc 11 df 3f 3c 7f 1c 01 3e
       0.021348497 -0.020389186 0.011710898 0.12608527

conv2.bias f4 [32]
000000 d5 b4 bc bc a8 f3 4c bd f9 8c 64 bb f5 fc 0b be
       -0.023035446 -0.050037056 -0.0034874065 -0.13670714
000010 40 d9 08 bd 76 54 93 bd 3d b5 34 3d c5 f6 78 bd
       -0.03341031 -0.07193844 0.044118155 -0.060782213
000020 e7 66 76 bd 8b a5 25 3d 77 79 98 3c 79 de d9 3b
       -0.06015673 0.040441077 0.018612606 0.0066488353
000030 48 46 e3 bc 6a 5e 99 bd 4c 90 e5 bc 30 c3 b0 bd
       -0.027743474 -0.07488711 -0.028022908 -0.08630979
000040 45 44 a9 bd 22 01 b0 bc 0a 00 c3 bd 20 ef fc 3b
       -0.082649745 -0.021484915 -0.09521492 0.0077189356
000050 dc ca 08 bd 85 d1 20 bd 87 d9 84 bd 86 02 a1 bd
       -0.033396587 -0.039262313 -0.064868025 -0.078618094
000060 3b 71 34 3c 70 26 8c bc 8d ee 84 bd f5 3e 1f be
       0.011013324 -0.017108172 -0.064908125 -0.1555136
000070 e4 d3 ea bc 07 79 50 3c 88 0c 24 3c d2 1f 74 3b
       -0.02866549 0.012724168 0.010012753 0.0037250412

fc1.weight f4 [128, 1568]
000000 c4 5d e0 bc 2a 9b 39 bc 6d 67 f0 ba 49 a3 94 3c
       -0.027388461 -0.011328498 -0.001834137 0.018144267
000010 5e 18 f2 bc e4 f5 09 bc 05 dd f0 bc 1e 6f 22 3c
       -0.029552635 -0.008420441 -0.029402265 0.009914188
000020 35 05 f6 bc 1e 26 59 3c 11 cc 5a 3c 47 45 91 3b
       -0.03003178 0.013253717 0.013354317 0.0044333073
000030 7e b0 70 bc e7 cb a0 bc 7e ad b0 3b 6f 12 b4 bc
       -0.0146905165 -0.019628478 0.0053917756 -0.021981446
000040 4e 5c e7 bb 03 26 0d bc 36 9e a5 bb 78 57 e6 bc
       -0.007060564 -0.00861502 -0.0050542606 -0.02811788
000050 99 e9 4f bc d2 c6 75 3c bd 25 9a 3b a3 2b 68 3c
       -0.012689971 0.015001016 0.004704206 0.01417056
000060 47 b4 9c 3c 71 8f 0c bc 1c c4 94 bc 02 dd c1 bc
       0.019128932 -0.008579121 -0.018159918 -0.023664955
000070 e1 aa ce bc 38 fb 19 bb 24 58 53 bd b2 1a 91 bc
       -0.025227966 -0.0023495685 -0.05159773 -0.017712925
000080 c0 c2 39 3c 3d 5f c8 3a fc 6b f1 bb 1d 27 8f 3c
       0.011337936 0.0015287172 -0.007367609 0.017474705
000090 e3 da 98 ba 10 d6 36 3b 5b 5e 25 bb f3 47 24 3c
       -0.0011661913 0.0027898587 -0.0025233242 0.01002692
0000a0 40 53 87 bc ce 2c e1 bc cd 04 42 bc 37 33 a2 bc
       -0.016519189 -0.027487185 -0.011841965 -0.019799812
0000b0 fc b2 18 3b 2e 7b 06 3c 3f 98 89 bb 56 88 c1 3a
       0.0023300042 0.008208079 -0.0041990574 0.0014765363
0000c0 a6 d9 a7 bc cc d9 cd bc d0 3a cb 3b 18 9e 08 bb
       -0.020489525 -0.025128268 0.0062020794 -0.0020846184
0000d0 6d 11 29 bc b0 d5 51 3b a0 83 68 3c b8 25 6d 3c
       -0.010319096 0.0032018237 0.014191538 0.014474325
0000e0 9e 66 10 bc 08 02 91 bc 90 25 39 3c 1c 37 15 bc
       -0.008813528 -0.017701164 0.0113004595 -0.009107377
0000f0 bd 9d 81 bb 20 b1 45 3c 5c 68 6c bc f8 9b 90 3c
       -0.0039555714 0.012066156 -0.014429178 0.017652497
000100 10 66 72 bc b2 6e 2e bc dc 27 e4 bc 84 22 a7 bc
       -0.014794841 -0.010646509 -0.027851038 -0.0204022
000110 30 df b1 bc d6 3d c5 3c 5d c5 aa bc 20 79 49 3b
       -0.02171287 0.024077337 -0.020846063 0.0030742362
000120 00 ea 41 38 3b 46 54 bc d4 72 de bb 84 ee 3f bd
       4.6232715e-05 -0.012956197 -0.006788591 -0.046858326
000130 ab 23 27 bd 00 7a dd 38 44 a8 7a 3c 88 c7 3f 3b
       -0.0408055 0.000105608255 0.015298907 0.0029263217
000140 28 3b 12 3c 10 3b 50 3b 44 db ae bb 1d 89 c7 bc
       0.008925237 0.0031773485 -0.005336197 -0.024357373
000150 40 21 64 bc f7 84 f5 bc 06 cd 8e bb 40 80 a5 bc
       -0.013923943 -0.02997063 -0.004357937 -0.020202756
000160 e8 d1 11 bc 5c 52 8e bb c8 76 c8 bc fe 3d 52 bc
       -0.008900143 -0.004343314 -0.024470702 -0.012832163
000170 66 a6 83 3c 58 89 d1 3b f0 2d 24 3b 24 b2 c3 bb
       0.016070556 0.0063945465 0.0025051795 -0.0059721638
000180 34 ba c7 3c 7c 82 fb bc 20 eb 6e 3b 70 ab 5e bc
       0.02438078 -0.030701868 0.0036456063 -0.013590679
000190 db fa 1f bc b6 6f c3 3c 90 8d 4e bc 60 29 f2 ba
       -0.009764398 0.023856979 -0.012606993 -0.0018475465
0001a0 34 07 4a bc d0 7e a7 3c ca 82 92 bc 50 45 1e bb
       -0.012330819 0.020446211 -0.01788463 -0.00241502
0001b0 74 7e a2 3b 87 78 7b 3c df df 50 3b e4 2c 3c 3c
       0.004958922 0.01534856 0.0031871719 0.011485312
0001c0 b0 34 c2 3c e0 97 b8 3a c8 9b 93 3b f5 2c 7c bc
       0.023706764 0.0014083348 0.0045046546 -0.015391578
0001d0 e8 b4 85 3c dd b2 98 3c f0 bf 94 3a 3e 1d 1e bc
       0.016321614 0.018639976 0.0011348706 -0.009650527
0001e0 50 85 91 bc 73 20 b7 bc 64 b4 64 ba 56 69 fd bc
       -0.017763764 -0.02235434 -0.000872439 -0.030934017
0001f0 81 f4 33 bc 66 5a c6 3c d4 ba 87 bb 3a 1e 98 bc
       -0.010983587 0.024213027 -0.0041421447 -0.0185691
000200 3e ac 34 bc 0a 34 03 3b c5 b7 fd bc d1 1a 14 3b
       -0.011027394 0.0020020031 -0.030971417 0.0022598992
000210 c9 94 d4 bb 8c a6 59 3c d4 99 9b 3b b2 f4 9c 3c
       -0.006487463 0.013284337 0.0047485624 0.019159649
000220 ce f7 a8 bc 00 54 99 3c ae 6b f0 3b b4 d3 90 3a
       -0.020625975 0.018716812 0.007337055 0.001104942
000230 40 13 a5 b9 2d 3f 57 bc a2 c4 01 bc c0 d9 ca bc
       -0.00031485595 -0.013137621 -0.007920416 -0.024762034
000240 95 ae 65 bc 8c b3 ab 3b 0f af d0 bb e4 f1 a7 bb
       -0.014018674 0.0052399095 -0.006368525 -0.005125271
000250 5d ae 8c bc ac b2 8e bc e4 af 20 3c 30 e2 3a 3c
       -0.017172987 -0.017419182 0.009807561 0.011406466
000260 20 49 32 3a 2a d8 0a bc 70 12 61 3c 04 72 2b bc
       0.00068010576 -0.008474389 0.013737306 -0.010464195
000270 b8 6c 8f 3b 00 af 39 3c 48 8a 9c 3c 20 56 f5 3b
       0.004376974 0.011333227 0.019108906 0.0074870735
000280 d0 ad c9 3a b2 84 c2 3c fb fc 78 bc 91 a7 c6 bc
       0.0015386883 0.023744915 -0.015197034 -0.024249824
000290 b0 ce b3 bc 4a d0 a1 3c 6a 27 80 3c eb c2 99 bc
       -0.021949142 0.01975264 0.015643794 -0.018769702
0002a0 c6 67 b5 bc 8a c9 95 3c 80 6d 77 3c c1 3d bb bb
       -0.02214421 0.018284578 0.01510179 -0.0057141487
0002b0 bf df 2c bd f5 36 f6 bc 47 b2 4f bc ee 3e 6f 3a
       -0.04220557 -0.030055502 -0.012676782 0.0009126504
0002c0 28 0d 3f bc 1c 03 7f 3c ac 33 87 bc 38 bf e1 3b
       -0.011660852 0.015564706 -0.016504131 0.00688925
0002d0 08 69 88 bc 84 cc 05 3c 6c 7c cb bc 4f 68 1a 3c
       -0.016651645 0.008166436 -0.024839602 0.009424283
0002e0 94 25 16 bd e4 1d 98 3b 01 8d 83 bc 68 9a 89 b9
       -0.03665693 0.004642235 -0.016058447 -0.00026245718
0002f0 2b 16 6d bc 14 df ba bb 5c 39 fc bb 80 a0 a7 bc
       -0.014470617 -0.0057028625 -0.0076972675 -0.020462275
000300 18 7a 69 bc 90 b7 29 3c 24 6f 16 bc c0 a6 be ba
       -0.014250301 0.010358706 -0.009181771 -0.0014545545
000310 4a a7 9b 3c 80 8c cc 3b fc 27 2b bc 30 d2 40 3c
       0.019000668 0.006242335 -0.010446545 0.011768863
000320 c4 ad 41 3c 66 04 2b 3c 1e 77 21 ba 54 4a 49 3c
       0.011821214 0.01043806 -0.00061594124 0.012285788
000330 c1 2a 2b bb 78 c8 ab bc a0 59 7a 3a 94 2f c4 3c
       -0.0026118013 -0.020969614 0.00095500983 0.023948468
000340 c3 36 b7 bb 23 5a 3b 37 21 9d 59 bc ee be 9d bb
       -0.005591245 1.1167055e-05 -0.013282091 -0.0048140204
000350 d3 01 3b 3c 4d 1e ac bc 6d 92 f9 bc fe 2f 8e 3a
       0.011414009 -0.021010542 -0.030465329 0.0010848043
000360 c0 c5 d7 bc 30 8a 34 3c 08 cd ab bc 52 0f 11 bc
       -0.026339412 0.011019275 -0.02097179 -0.00885375
000370 7d 37 0e bc 9a ca 54 3c 00 ad 92 ba b3 bd ec bc
       -0.008680222 0.012987757 -0.0011190474 -0.02889905
000380 c4 82 a0 3b b2 70 68 bc e5 71 1a 3c 65 ab cd bc
       0.004898401 -0.014187025 0.009426569 -0.025106141
000390 9f c8 ce bb 18 81 5e 3b 96 28 a8 bc 18 2e 6b 3b
       -0.006310537 0.0033951458 -0.020527165 0.0035885628
0003a0 7e 95 e3 bc 80 23 0a bc 4c 8f a6 bb c7 be d8 bc
       -0.027781244 -0.008431315 -0.0050830003 -0.026458157
0003b0 d3 b6 f6 bc 8a 81 29 bc 32 27 b5 3c 50 cd c5 3a
       -0.030116474 -0.010345826 0.022113416 0.0015091095
0003c0 f8 64 1d 3b 88 b2 8e 3b 45 da 8b bc 4f 6b 23 bb
       0.002401648 0.0043547787 -0.017071852 -0.0024935787
0003d0 b0 4c 88 3c 8c 3a 5c bc ca 94 b9 bc 1b 47 fd bc
       0.01663813 -0.013441693 -0.022653956 -0.030917695
0003e0 16 d6 26 3b 3c be 4d bc 77 8e 13 bc 0a b6 ee bb
       0.0025457195 -0.012557562 -0.009006134 -0.0072848843
0003f0 00 4f b9 ba d4 75 3f bc 96 81 90 bc 86 2f b7 3b
       -0.0014137924 -0.011685807 -0.017639916 0.005590382

fc1.bias f4 [128]
000000 b5 fc 89 bc 2f c5 38 bd 96 e5 15 bd d2 76 ab bc
       -0.016844133 -0.045109924 -0.036595903 -0.020930681
000010 20 7f 39 bc 69 29 eb bc c5 c1 80 bc ff 2c 12 bb
       -0.011321813 -0.02870627 -0.015717397 -0.0022304652
000020 5e bc e1 3c 8d d7 ee 3b 99 11 8e bd 99 12 0e 3d
       0.02755564 0.0072888792 -0.0693695 0.034685705
000030 50 4f 81 bd 12 3a 81 bd 42 8c 66 bc 44 0d 56 bd
       -0.06313956 -0.06309904 -0.014071526 -0.052258745
000040 84 b1 61 bc b8 23 1e 3d 1f 20 7a bc 3d 80 9a bc
       -0.013775233 0.038608283 -0.015266447 -0.018859977
000050 36 07 aa bc 04 b7 a6 3d 25 e0 86 3c 01 af 0d 3c
       -0.020755392 0.08140376 0.016464302 0.008647681
000060 a1 f6 5f 3d b0 d6 70 b9 f7 fe e8 bc f7 79 48 3d
       0.054678563 -0.00022968161 -0.02844189 0.04894444
000070 8b a9 64 bb 5e a9 84 bd db 76 7f bc 2c b8 80 3d
       -0.0034891095 -0.06477617 -0.015592302 0.06285128
000080 14 2f 83 3a 6e 16 09 bc 46 82 26 bd 6d 90 a2 bd
       0.0010008537 -0.008367164 -0.040651582 -0.07937703
000090 52 b3 f0 ba 40 d8 b6 bc 77 cf 72 3c 76 49 37 bd
       -0.0018363988 -0.022319913 0.014819971 -0.044747792
0000a0 e2 3a 72 bb fa 89 80 bc 4e dd 80 3c 4b ec 5f 3c
       -0.0036961366 -0.015690792 0.015730526 0.0136671765
0000b0 ae db 51 bd 22 7e 25 bd 57 7f c1 bc e5 11 d1 bd
       -0.051234894 -0.040403493 -0.02362029 -0.10208491
0000c0 9d 02 83 bc eb ae 56 bb 84 d5 16 3c fc 61 8f bd
       -0.015992457 -0.0032758068 0.0092061795 -0.07001111
0000d0 6e 6d 26 bc 51 7a 76 ba e8 09 56 3d d7 c4 23 3b
       -0.010157926 -0.0009402382 0.05225554 0.0024989152
0000e0 1c f4 de 3c c1 bc 53 bd 1a 55 ce bc 22 93 00 bd
       0.02721601 -0.05169368 -0.025187064 -0.031390317
0000f0 03 95 8a bd b3 46 de bb 0d 2c a4 3c cc e4 6e bc
       -0.06766703 -0.0067833303 0.020040536 -0.014580917
000100 3c 34 5f 3d 78 97 f5 3c a4 27 62 bd 87 0e 85 3c
       0.054493174 0.029979452 -0.055213585 0.016242279
000110 e4 63 84 bb f4 ba 68 3c 2e 89 ff bc 66 b3 9f bc
       -0.004040228 0.014204729 -0.031193342 -0.019494724
000120 88 f3 17 bd 59 9c 0c bd b6 7a b7 bc 4c be 0e bc
       -0.037097484 -0.034328792 -0.02239738 -0.0087123625
000130 9d a4 10 bc 8c 7b 82 3c 6a c5 10 bd 5a 52 d9 bc
       -0.008828309 0.015928052 -0.03534452 -0.026528526
000140 4c ef 79 3c 68 37 14 bc 25 6d 3f 3b be 13 51 3d
       0.015254807 -0.009046413 0.0029209342 0.05104422
000150 f9 06 f8 3b 8f 94 b1 bc 42 79 a3 3c 46 ca 58 bd
       0.0075691906 -0.021677284 0.019955281 -0.052927278
000160 2d bb 44 3d 9b 96 c5 bc e7 8b 59 3d 2c 1e 72 3c
       0.048030067 -0.024119666 0.053111937 0.014777701
000170 c1 e4 52 3c d4 7c 61 bd db 30 fa bc 44 36 3a bd
       0.012871922 -0.055050686 -0.030540874 -0.045461908
000180 1d b7 9a bc 05 86 c7 3c 0d 24 6a 3c 8c bb 21 bd
       -0.018886143 0.024355898 0.014290822 -0.0394855
000190 26 ce c6 3d 29 40 19 3d 84 e9 0f 3d a9 18 44 3d
       0.097072884 0.037414704 0.035134807 0.04787508
0001a0 ff 97 a2 3c 84 44 74 3c fa 31 a7 bc d7 d6 3a bd
       0.019847868 0.0149089135 -0.020409573 -0.045615043
0001b0 2d 80 a3 3c 55 9d b8 bc 28 21 00 bc fa 93 d7 3c
       0.01995858 -0.02253596 -0.007820405 0.026315678
0001c0 03 c8 b0 3d 4e d7 52 3c da d7 26 bc 15 af f7 bc
       0.08631899 0.012868715 -0.010183299 -0.030234853
0001d0 78 a2 af bc 6a 0e 7d bc 86 60 fc 3c 6b ca d7 bb
       -0.021439776 -0.015445331 0.030807745 -0.0065854094
0001e0 43 fe 4b 3d 6c be 17 3d 2b 93 28 bd 49 49 3d bd
       0.04980303 0.037046835 -0.041155975 -0.04621247
0001f0 25 6b c0 3b ab 64 3a bd f8 8a 43 3c 2d 8c 8c bc
       0.0058721476 -0.04550616 0.011934988 -0.017156685

fc2.weight f4 [10, 128]
000000 db a9 4a bd 02 87 6b 3d 27 a3 e6 bc 87 a9 13 bc
       -0.049478393 0.0575018 -0.028153969 -0.009012586
000010 ab 81 f7 3c 1f bd e2 bd e6 43 40 3d d7 86 64 3d
       0.030213198 -0.11071228 0.046939753 0.055792656
000020 a6 f1 44 bd 5e 55 11 bd 04 68 ac bd b1 0e 00 be
       -0.048082016 -0.035481803 -0.08418277 -0.12505604
000030 f4 9b 32 be 55 cc a8 3d 2f 01 81 bc ba 4d 80 be
       -0.17442304 0.08242098 -0.015747635 -0.250593
000040 cb dd df 3d c8 e0 7b bd 19 02 50 3d 8e 16 10 bd
       0.109309755 -0.061493665 0.05078325 -0.03517776
000050 a5 8f 88 3b 1e e3 f2 3d 3e ca 31 be 4f f7 84 3c
       0.0041675144 0.118597254 -0.17362306 0.016231207
000060 3c f9 3c 3e 82 b0 98 3d 19 ef 96 bd a3 57 28 3e
       0.1845445 0.07455541 -0.07369823 0.16439681
000070 0e 74 c7 3d 33 01 90 bc d7 b1 30 3c 22 cc 7a be
       0.097389325 -0.017578697 0.010784588 -0.24491933
000080 18 97 44 3e a8 08 ce 3d db d5 d0 bd 64 de a5 38
       0.19198263 0.10060245 -0.1019704 7.9092366e-05
000090 04 8f 91 3d b2 c6 b0 bd ad 7e 5d be 13 b2 45 3c
       0.07107356 -0.08631648 -0.21630354 0.012066382
0000a0 91 44 f4 3d 46 07 2d bb 2e a3 74 3d 91 17 65 3d
       0.119271405 -0.002640204 0.059725933 0.055930678
0000b0 7c 7b f5 bd 91 0e 2b bc c9 e6 a2 ba 73 fc 15 3c
       -0.119864434 -0.010440485 -0.0012428398 0.009154427
0000c0 38 01 63 bd d2 57 59 be 2f 73 c8 bc 6d 26 2a bc
       -0.055421084 -0.21224907 -0.024468986 -0.010385138
0000d0 58 da 61 bd 79 18 2b bd 56 7e 5e bd 80 de 28 be
       -0.05513987 -0.041771386 -0.054319702 -0.16491127
0000e0 cf c7 47 be 34 5e e6 bc cf 75 78 3d c2 8b 58 bd
       -0.19509815 -0.028121091 0.060659226 -0.05286766
0000f0 d7 4f 8d bc 89 35 b0 bd c4 75 e7 bd 8c 15 37 3d
       -0.017249985 -0.08603961 -0.11301759 0.044698283
000100 d4 e5 cc bc 7e c5 f0 3d 04 c8 50 be 5a df 70 be
       -0.025011934 0.11756419 -0.203888 -0.23522702
000110 3c eb df bd 7d 18 57 3d cb 9d 4f 3d c9 e5 2e 3d
       -0.10933539 0.05251359 0.050687592 0.04269961
000120 33 cf 56 3b c6 69 05 be da 57 02 3e a0 39 39 bd
       0.003277731 -0.1302863 0.12728825 -0.04522097
000130 18 9d b4 bd b9 22 79 3c 8c ca 07 bd e1 e6 b3 bc
       -0.08819026 0.015206032 -0.033152148 -0.021960678
000140 d1 28 46 bd 0e 4f 6d be b2 3a 96 3d 6b bc 45 3c
       -0.04837877 -0.23174688 0.07335414 0.012068848
000150 44 9d a1 bd 02 c0 01 bc d0 62 d8 3d 1f 83 2c be
       -0.07891324 -0.007919313 0.10565722 -0.16846894
000160 12 0b ae 3d ef 5f ac bb 94 99 bd 3d 7d 6b 3c be
       0.08498205 -0.0052604596 0.09257808 -0.18400379
000170 af 15 b2 3d c1 ab c0 bd 99 1c 00 3d 13 9d d6 bc
       0.08695542 -0.094077595 0.031277273 -0.026197946
000180 70 c5 99 bd d0 fc 66 3e 91 de 63 3c 00 4a b6 bd
       -0.07508361 0.22557378 0.013908044 -0.08900833
000190 c6 03 47 be a9 6c a5 bb c3 4a cb 3d bc 75 d6 bc
       -0.19435033 -0.0050483537 0.09926369 -0.026179187
0001a0 68 0e dc bc 8a e2 8f 3d ee b1 40 bd 29 e3 8c 3b
       -0.026862338 0.07025631 -0.047044687 0.0042995405
0001b0 0a 32 49 be c9 7f 55 be 96 9c 96 bd a7 e7 d7 3d
       -0.19647995 -0.20849527 -0.07354085 0.10542231
0001c0 17 07 84 3d 64 75 92 be ae 7d 5b be ea 90 82 be
       0.06446665 -0.28605187 -0.21434662 -0.25501186
0001d0 87 cc b5 bc 46 e7 50 3d 48 ec 14 3e f3 d4 07 bd
       -0.022192253 0.05100181 0.14543259 -0.03316207
0001e0 55 f4 f1 3d 26 43 8c 3d 50 30 0a 3a 2f d6 2c 3d
       0.11814181 0.06848745 0.00052714814 0.04219645
0001f0 bf da 5d be 53 d9 f6 bd c2 56 ba 3c 2c f8 9c bd
       -0.21665476 -0.1205317 0.022746447 -0.076645225
000200 f2 9c a9 bd e4 f5 8e 3d 2d 86 06 be 9e ed 62 be
       -0.08281888 0.06980494 -0.13137121 -0.22160956
000210 ab 98 70 bd 36 9b 32 be f0 05 a7 bd 18 8c 72 be
       -0.058739346 -0.17442021 -0.08155429 -0.23686254
000220 b0 8d 51 3d 0a fb 40 3c 3b be e6 3c da 12 51 bd
       0.051160514 0.011778602 0.02816688 -0.05104337
000230 f4 50 0a be d6 f5 d8 bd 2b 7a 1f 3c 15 e2 0b bc
       -0.13507444 -0.105937645 0.009733717 -0.008537789
000240 c8 28 92 3d f2 a1 93 3c be c2 96 be 09 e1 88 3d
       0.07136685 0.018021557 -0.29445451 0.06683547
000250 1f 47 eb bc 76 13 05 3e b6 b3 3d 3e 70 75 a9 3a
       -0.028720437 0.12995705 0.18525586 0.0012928676
000260 9f f1 9c 3d 53 da 4b 3c 7e 75 40 bc cd 71 43 3d
       0.07663273 0.012442189 -0.011746762 0.04771595
000270 32 65 21 bd 6e 60 1c bd ff 5e 50 3b 51 28 14 3e
       -0.039403148 -0.0381779 0.0031794903 0.14468504
000280 d5 79 19 bb 02 e4 59 be 41 01 6c bc ab f1 18 3d
       -0.0023418565 -0.21278384 -0.014404596 0.037339848
000290 5d dd 6e 3b 27 17 17 3d 87 a0 50 bc a6 cd c3 3c
       0.003644786 0.036887314 -0.012733585 0.023901772
0002a0 05 55 19 3b ca 89 5c 3c bd 41 b3 bd 07 96 46 3c
       0.0023396623 0.013460586 -0.08752773 0.01212073
0002b0 2e 69 03 3d 91 2b 0a 3c 9c c4 8a bd 59 be 00 be
       0.03208273 0.008433239 -0.067757815 -0.12572612
0002c0 a0 3c c0 bd 78 5f 06 bd 0e bd 35 bd fd c1 8a bd
       -0.09386563 -0.03280589 -0.04436975 -0.067752816
0002d0 6e c8 c9 bc b8 9e 8e bd 87 90 01 3e 82 b9 17 be
       -0.024631705 -0.06963867 0.12652789 -0.1481686
0002e0 64 2e 49 3d 7b 65 cd bb e2 6b 6b bd 98 d8 27 bd
       0.049116507 -0.006268201 -0.057475932 -0.040978044
0002f0 65 56 de 38 3f ad 11 3d 3b 6f 89 bd c0 2d 46 be
       0.00010601877 0.03556561 -0.06710669 -0.1935339
000300 67 ec cd 3d aa 28 44 bd 84 99 92 be e8 39 7e 3d
       0.10054856 -0.047890343 -0.28632748 0.062066942
000310 8c dd 41 3d da b9 07 bd 9c bc 35 be 92 f9 07 3e
       0.047330424 -0.033136226 -0.1774773 0.13278797
000320 25 56 21 bd 83 85 25 bd 59 9f ad 3d c3 1a 49 3c
       -0.039388794 -0.04041053 0.08477659 0.012274447
000330 39 f3 04 bd f2 01 3b bd 13 e4 83 3d f2 11 40 3d
       -0.032458518 -0.045656152 0.06439986 0.046892114
000340 f2 57 13 3d 5e 63 58 3d 4f 11 0f be 93 e7 e7 3d
       0.035972543 0.05282914 -0.13971446 0.11323466
000350 6f 51 f1 bc 92 e1 32 bd e5 84 c9 3d e5 3a 96 3c
       -0.029457776 -0.043672152 0.09839801 0.01833863
000360 f9 74 36 3d 85 78 ad bd 7e 04 d0 bd da 43 31 be
       0.044545148 -0.08470253 -0.10157107 -0.1731104
000370 43 94 33 be b1 9d 56 be f6 1d 33 3d 51 be 18 be
       -0.17537026 -0.20958592 0.043729745 -0.1491635
000380 b2 83 00 bd 8e 9a 72 3d 32 d7 ee 3c 11 c1 29 bd
       -0.031375594 0.059229426 0.029155347 -0.041443888
000390 59 17 6b 3e d5 72 26 3b 34 80 d1 bd 3f 18 b4 3d
       0.22958125 0.0025398035 -0.10229531 0.08793687
0003a0 04 a4 82 3c a9 5d 0a 3d 23 4f 89 bd 1d 28 8d be
       0.01594735 0.033780728 -0.06704547 -0.27569667
0003b0 e3 51 00 3e c0 4f 04 3d 72 70 09 be 94 33 3b 3e
       0.12531237 0.032302618 -0.134218 0.18281394
0003c0 4e 80 c8 3d d1 7f b8 3d 66 5f 80 3b 3e 78 f8 bc
       0.09790097 0.09008754 0.0039176224 -0.030330773
0003d0 dc a6 1d 3c f0 c8 05 be 45 47 44 3d 8b cc 35 bd
       0.009622302 -0.13064933 0.04791953 -0.04438452
0003e0 2b d3 f3 3d 34 eb ab bd 21 8a 4e be 1c 85 de bc
       0.119055115 -0.08394471 -0.2016988 -0.02716308
0003f0 27 35 1c 3d d3 ac 94 bd b5 57 f2 3b cd 57 d3 3d
       0.038136628 -0.07259526 0.0073957094 0.10319481

fc2.bias f4 [10]
000000 d0 c5 0f 3c ce ad e3 3d d4 e4 9b 3d 85 69 ab 3d
       0.0087751895 0.11117135 0.07612005 0.08369736
000010 b8 b5 b8 bc c9 62 9a 3d 2c 24 b5 bd 6b b0 38 3d
       -0.022547588 0.07538373 -0.0884479 0.04509012
000020 b9 4e 44 3c dd 43 d7 bb
       0.01198166 -0.006569369
